{"class_name": "Functional", "config": {"name": "functional_19", "layers": [{"class_name": "InputLayer", "config": {"batch_input_shape": [null, 100], "dtype": "float32", "sparse": false, "ragged": false, "name": "Input_rings"}, "name": "Input_rings", "inbound_nodes": []}, {"class_name": "InputLayer", "config": {"batch_input_shape": [null, 6], "dtype": "float32", "sparse": false, "ragged": false, "name": "Input_showers"}, "name": "Input_showers", "inbound_nodes": []}, {"class_name": "Dense", "config": {"name": "dense_rings_layer", "trainable": true, "dtype": "float32", "units": 5, "activation": "relu", "use_bias": true, "kernel_initializer": {"class_name": "GlorotUniform", "config": {"seed": null}}, "bias_initializer": {"class_name": "Zeros", "config": {}}, "kernel_regularizer": null, "bias_regularizer": null, "activity_regularizer": null, "kernel_constraint": null, "bias_constraint": null}, "name": "dense_rings_layer", "inbound_nodes": [[["Input_rings", 0, 0, {}]]]}, {"class_name": "Dense", "config": {"name": "dense_shower_layer", "trainable": true, "dtype": "float32", "units": 5, "activation": "relu", "use_bias": true, "kernel_initializer": {"class_name": "GlorotUniform", "config": {"seed": null}}, "bias_initializer": {"class_name": "Zeros", "config": {}}, "kernel_regularizer": null, "bias_regularizer": null, "activity_regularizer": null, "kernel_constraint": null, "bias_constraint": null}, "name": "dense_shower_layer", "inbound_nodes": [[["Input_showers", 0, 0, {}]]]}, {"class_name": "Concatenate", "config": {"name": "concatenate", "trainable": true, "dtype": "float32", "axis": 1}, "name": "concatenate", "inbound_nodes": [[["dense_rings_layer", 0, 0, {}], ["dense_shower_layer", 0, 0, {}]]]}, {"class_name": "Dense", "config": {"name": "dense_layer", "trainable": true, "dtype": "float32", "units": 5, "activation": "relu", "use_bias": true, "kernel_initializer": {"class_name": "GlorotUniform", "config": {"seed": null}}, "bias_initializer": {"class_name": "Zeros", "config": {}}, "kernel_regularizer": null, "bias_regularizer": null, "activity_regularizer": null, "kernel_constraint": null, "bias_constraint": null}, "name": "dense_layer", "inbound_nodes": [[["concatenate", 0, 0, {}]]]}, {"class_name": "Dense", "config": {"name": "output_for_inference", "trainable": true, "dtype": "float32", "units": 1, "activation": "linear", "use_bias": true, "kernel_initializer": {"class_name": "GlorotUniform", "config": {"seed": null}}, "bias_initializer": {"class_name": "Zeros", "config": {}}, "kernel_regularizer": null, "bias_regularizer": null, "activity_regularizer": null, "kernel_constraint": null, "bias_constraint": null}, "name": "output_for_inference", "inbound_nodes": [[["dense_layer", 0, 0, {}]]]}], "input_layers": [["Input_rings", 0, 0], ["Input_showers", 0, 0]], "output_layers": [["output_for_inference", 0, 0]]}, "keras_version": "2.4.0", "backend": "tensorflow"}